laser_model.pth (torch, 14071 bytes, 8 tensors)

hidden1.weight f4 [64, 2]
00000000: 8e9a f03e b089 f9be 3f75 503e 3b67 273f
00000010: 3de0 4fbd e253 fa3e 0506 5d3f 9dd1 2e3f
00000020: f27a 6cbe 4082 083f 6592 dd3e a67b 4d3e
00000030: 20e3 2a3f 38f8 2d3f 60bc c13e 3a23 173f
00000040: 7e32 a4bc add1 2ebf 55a0 463f bb7c 003e
00000050: 9892 22bf fd51 d93e 3106 053f 3887 bfbe
00000060: 30f0 533e e887 863e cea9 a8be 1c10 673e
00000070: b407 2c3f 596b 2a3f 65fd 1d3f caa9 f53d
00000080: 6c0b 14be d3b9 b53e f9d6 e43e a54a d53e
00000090: aced 563e 6b20 01bf 876d 2dbf 89e7 1b3e
000000a0: 92b5 d63e 8463 473f 4b46 ebbe 7d62 243d
000000b0: a128 933e ef2d 583f 4f2d 22bf aad5 11bf
000000c0: 6c10 533f e911 c03e f32c 0ebf 944f 13bf
000000d0: a05d f83b dc9f 83be f5ca 3b3f 2e67 243e
000000e0: 4f35 9ebd 2efb c33e e16e 05bf df2b 66be
000000f0: 47b6 87bc 6f20 b2bc 71b2 eabe 52fc 053f
00000100: 6945 013f 48bc 2fbd dfde bdbd f1f0 0d3f
00000110: 181f 333e b591 c13e 7c46 e03e d22f c53d
00000120: 2d14 553f 0e97 ca3d 5117 113f e581 74be
00000130: 984c 90be 1da2 d53c c13d c3bd bb66 ce3e
00000140: 7f24 86be 3f06 09bf e10f b03e 0b44 193e
00000150: 6906 febe d100 ca3e 9a88 2abf 36bb e9be
00000160: 2fdb efbe 97b4 37be e9b3 d5be 3e5f c9be
00000170: ac12 213f 20f3 fcbe 098b 1a3f ca55 2ebe
00000180: 58f4 88be 9135 88be 6ff6 073f ef0f cbbd
00000190: eb77 a43e b98e 06bf 294a 2cbf ba0f 083f
000001a0: e51d 3c3f 2b1c d83c 37e2 883e dcfb 0abf
000001b0: c38d ffbe 36a7 843e 28f4 443e f44b dfbd
000001c0: d829 16bf a931 1dbf cbc3 3b3f 4a66 ffbe
000001d0: b260 993e 900e 2f3f 35bd d0be ee1c 09bf
000001e0: f517 0bbf ca25 c1be e13d 383f 2c25 98be
000001f0: 97a5 1b3f 1b1c 553f 5fe3 c5be b772 0d3e
0.46992916 -0.4873786 0.20357226 0.6539189 -0.05075096 0.48892123 0.8633731 0.68288594
-0.23093775 0.53323746 0.43275753 0.200667 0.66752815 0.67956877 0.3783903 0.59038126
-0.020043608 -0.6828869 0.775884 0.12547581 -0.63504934 0.42445365 0.5196257 -0.3740785
0.20697093 0.26275563 -0.3294205 0.22564739 0.67199254 0.6657005 0.61714774 0.11995275
-0.14457482 0.35493335 0.4469526 0.41658512 0.20989102 -0.5044009 -0.6774525 0.15225042
0.41935402 0.77886224 -0.45952067 0.04013299 0.28741935 0.8444509 -0.63350385 -0.5696665
0.8244693 0.37513664 -0.5553734 -0.575433 0.0075795203 -0.257079 0.7335656 0.16054985
-0.077250116 0.38277572 -0.5212231 -0.22477673 -0.016566409 -0.021743981 -0.45839265 0.52338135
0.50496536 -0.04290417 -0.09271025 0.5544577 0.1749233 0.37806478 0.43803775 0.096282616
0.8323391 0.09892093 0.56676203 -0.23877676 -0.28183436 0.026078278 -0.09533263 0.40312752
-0.2619972 -0.53525156 0.34387115 0.14967363 -0.49614266 0.39453748 -0.6661469 -0.45650643
-0.4684691 -0.17939983 -0.41738823 -0.39330477 0.62919116 -0.4940424 0.603684 -0.17024913
-0.2674892 -0.26603368 0.531104 -0.099151485 0.3212274 -0.5256153 -0.6730066 0.53148997
0.73483115 0.026380619 0.26735088 -0.54290557 -0.49912843 0.25908822 0.19233763 -0.10903159
-0.586576 -0.614039 0.7334563 -0.49882728 0.29956585 0.68381596 -0.40769354 -0.5355977
-0.5433343 -0.37724143 0.7196942 -0.2971586 0.60799545 0.8324601 -0.38650033 0.13813291

hidden1.bias f4 [64]
00000000: 9377 cbbe 923e 0dbf 4074 8bbe 7558 72bd
00000010: d53b b8be 049c bcbe 1c1f 153e f8c2 e3be
00000020: 4afe a538 e7ef febe 287d 19bf 8032 ee3d
00000030: 6d3e d5bd 23b7 85be 33e8 a33d 0cb9 4c3f
00000040: c495 543c 88df ecbc e9d1 93be 4d14 9bbe
00000050: af3b abbe 9ed6 0d3e a41f 2abe f549 1d3f
00000060: 3326 df3e be87 32bf a051 f4be 93cc d33e
00000070: 0057 203f e299 ccbe 41ba a03e 0015 d13e
00000080: 359a 93bb f7b0 bb3e 38e7 053f 36f4 9e3e
00000090: 4dcf 093f e035 a0be 2514 2dbf 2fa4 b9be
000000a0: cb50 7b3e 3a3b f83e 9254 c9bd b3fa 11bf
000000b0: 71c6 093f 8d97 5d3d 5224 143f 1920 c13e
000000c0: cc1a b83e fb85 1b3f c1ab 3f3e ef21 00be
000000d0: 10b1 b03d 928d aa3e 4684 31be 82ff 073f
000000e0: 9510 2f3f df2e af3d 51b1 ef3e ef02 f53e
000000f0: eede c13e 783f ea3e be8a d33b 341d 2f3f
-0.39739665 -0.551736 -0.2723713 -0.05916639 -0.35983148 -0.3683778 0.14562649 -0.44484687
7.915178e-05 -0.49792406 -0.599566 0.11630726 -0.104122974 -0.26116285 0.08003273 0.7996986
0.01297516 -0.028915182 -0.28871086 -0.30288926 -0.33443972 0.13851401 -0.16613632 0.61440974
0.4358383 -0.69738376 -0.47718525 0.41367015 0.6263275 -0.39961153 0.313921 0.40836334
-0.004504467 0.3665845 0.52305937 0.31045693 0.5383194 -0.31291103 -0.67608863 -0.36258075
0.24542539 0.48482686 -0.09830584 -0.5702316 0.5381842 0.05409961 0.5786792 0.377198
0.35957944 0.6075131 0.18717863 -0.12512945 0.08627522 0.33311135 -0.17335615 0.5312425
0.6838468 0.08553862 0.4681497 0.478538 0.37865394 0.45751548 0.0064557483 0.68403935

hidden2.weight f4 [32, 64]
00000000: 3290 e53d 22d3 4e3e 6823 4a3d 1450 563e
00000010: 1465 0ebd 7151 103e ee60 673e 4c3b 1e3e
00000020: 7853 46bd c317 b63d fa50 e03d cb2c 303d
00000030: b4ac ad3d 0464 d23d fdd8 8d3e 9c4b 623e
00000040: f06c 10bd b4bb 173e 4cbc 7f3e 8865 7cbd
00000050: f168 1e3e 4c29 96bd 28b0 1b3e 90a7 dabc
00000060: 9c6c 103e c435 bdbd b6f1 bd3d 546c 773e
00000070: e0fb cdbb 80d4 c53a a29e efbd bccc c9bd
00000080: 8134 7e3d 3e5b 983d 7c66 133e acf6 153e
00000090: 7533 203e 72b2 3a3e c034 ddbd d819 6b3d
000000a0: d03b 4c3c 3e04 933e 0842 ed3d 6099 bbbb
000000b0: b8cb ea3c 009f 283a 8331 ff3d be3d 743e
000000c0: 9e7e ccbd 3e38 1f3e c0fd ae3d c025 2c3c
000000d0: 0004 343e 47d0 853d dc3d e1bd a022 633e
000000e0: d47f 52bd ea8d 833e c1af 5c3e 4ca9 41bd
000000f0: 027f fe3d e8dc 4c3e 199c a93d a0e9 9c3b
00000100: 40ab 8cbc 8256 c1bd 0e47 c1bd 7ced 56bd
00000110: 7cd9 e4bd f032 723d c8df a83d f8f2 e53c
00000120: 4892 ac3d 9c87 21bd 20fc eebd fa3d 933d
00000130: c0cb 6fbd 880f 66bd 8448 353d 006b 773a
00000140: c611 d03d 0065 ec3b 003f 253d f0e8 753d
00000150: 48ce 853d 284c 603d bc1f bbbd a486 ac3d
00000160: a412 99bd 1283 96bd b02f 593d 048b 94bd
00000170: be0d d53d a0f0 7cbd 7888 963c f037 bfbc
00000180: d898 243d 5265 8c3d 60c7 a6bd de2d 863d
00000190: 9ad7 f5bd 70f8 0ebd c0df 75bd 10ae 873c
000001a0: 460d 89bd fe7a 8ebd 20b1 643d b068 4c3d
000001b0: 00c8 983b fe84 9abd 0009 0d3c e0c8 6a3d
000001c0: 14b1 98bd 489b c2bd a43a b5bd 80f2 933c
000001d0: 3c35 61bd 104c af3d f4b0 a53d a8ae e53c
000001e0: f80a a8bc 00ae c1b9 ca6f ac3d 2414 cebd
000001f0: d037 b2bd a0b1 073c 00ab 46bb f27b 853d
00000200: 5aed 3e3d 0426 61bd 4492 c8bd 6aeb dfbb
00000210: 3022 013c fecc 8abd e4d3 19be 8522 9f3c
00000220: dca4 803d ca59 f53b 28ce 02bd e77e 6a3d
00000230: 7135 2ebd 9c1f ebbd 3229 163c 0dbd 9b3d
00000240: 5a36 e4bd c5ec 0abe 86e6 d93c 94e4 ab3d
00000250: 96b2 8b3d 0cd9 1fbd f8e8 0ebe 98fb 84bc
00000260: 82f9 bb3d d681 d23d 1c7e 29bd 8180 d5bd
00000270: 883d 6a3d e411 323d 6864 643d 9af6 95bd
00000280: 29f6 5e3d 8c35 873d 1339 7e3c 0a75 82bc
00000290: 5e57 6abd e93d 9e3c 0033 13ba d41c f33d
000002a0: fe47 fbbd 3066 fbbc 6080 b83c 10b8 67bc
000002b0: 22dd c93d 704d 813c c87c 6abc 1631 973d
000002c0: 4657 88bd ad7b 00be 92eb 583d f861 e63d
000002d0: 3a75 513d 2ac8 d8bd 924b d93d 9f78 e1bd
000002e0: 1847 2bbd e376 25bd 940c c63d 6010 02bc
000002f0: a0bb 91bd d1d5 b63d 3eff 18bb 7ca6 51bd
00000300: c4b8 0bbd 9afb e03d d0e8 e73d d60c a4bd
00000310: 801f 573b b4d9 72bd c653 e1bd aa06 d1bd
00000320: 68e3 e23c 28d4 c2bd 60f4 56bc 48a8 aabd
00000330: 5c7d 59bd 0617 a3bd 428e b7bd 202f 5bbd
00000340: 8489 74bd fc0c eebd 8881 9c3d e2b7 a3bd
00000350: 5856 b03d 2c2c debd 68bb 573d e82b cc3c
00000360: 74d6 17bd 9427 3abd 7c2a 11bd 8e50 f9bd
00000370: 60a6 103d 74ee 363d e0f0 573c c8da d6bd
00000380: 8433 57bd 70bb d13c 4076 fc3d 3628 853d
00000390: 007f fdba 4452 a0bd 48bd d53c b8b2 23bd
000003a0: 944d 8dbd c0ef 7cbc 109c 5ebd 6ace b93d
000003b0: f40a 103d 2474 ee3d 8060 303c 909d 99bc
000003c0: 5022 0dbc e029 c9bc b4ba d63d 18df 9bbc
000003d0: 6cd4 c5bd 7889 ee3c 48e6 1f3d 1a0c 8d3d
000003e0: 601b ba3c ee95 b33d 8c83 4dbd 2ab4 c9bd
000003f0: 2012 8f3d 1679 bf3d 70d3 a1bc 80fa b1bb
0.11209144 0.20197728 0.049350172 0.20928985 -0.034764364 0.14093567 0.2259557 0.15452307
-0.048419446 0.08891251 0.10952945 0.043011468 0.08480206 0.10272983 0.2770461 0.22099155
-0.03526014 0.14817697 0.24974173 -0.061620265 0.1546972 -0.073320955 0.15203917 -0.026691228
0.14103931 -0.092387706 0.09274618 0.24162418 -0.0062861294 0.0015093237 -0.11700179 -0.09853503
0.06206179 0.07439278 0.14394563 0.14644879 0.1564463 0.18232134 -0.10801077 0.057397693
0.012465432 0.28714174 0.1158486 -0.005725071 0.028661594 0.0006432384 0.124606155 0.23851678
-0.09985088 0.15548798 0.08544493 0.010507047 0.17579651 0.065338664 -0.10998127 0.22181177
-0.051391438 0.2569421 0.2155142 -0.047280595 0.124265686 0.20006144 0.082817264 0.0047885925
-0.017171502 -0.09440328 -0.09437381 -0.052472576 -0.11174294 0.05913061 0.08245808 0.028069958
0.084263384 -0.039435968 -0.11669183 0.071895555 -0.05854392 -0.056167156 0.04425861 0.00094382465
0.1015964 0.0072141886 0.040343285 0.0600366 0.06533486 0.05476013 -0.09136912 0.08424118
-0.074742585 -0.073492184 0.053023994 -0.072530776 0.10403012 -0.061752915 0.01837562 -0.023342103
0.040184826 0.06855263 -0.081434965 0.06551717 -0.12004013 -0.034904897 -0.060027838 0.016562492
-0.06691985 -0.06957053 0.055832982 0.049904525 0.0046625137 -0.075448975 0.008608103 0.057320476
-0.0745565 -0.09502274 -0.088490754 0.018059969 -0.05498241 0.0855943 0.08090392 0.028037384
-0.020513043 -0.0003694147 0.084197596 -0.10062435 -0.08702052 0.008282095 -0.0030314326 0.06517781
0.046613075 -0.054967895 -0.09793523 -0.0068334835 0.007881686 -0.067773804 -0.15022236 0.01942564
0.062814444 0.0074875103 -0.031934887 0.05724993 -0.042531434 -0.114806384 0.009165095 0.07604418
-0.11143179 -0.13566883 0.02659918 0.08393207 0.06821172 -0.03902535 -0.13956058 -0.01623325
0.09178449 0.102786705 -0.041380033 -0.10424901 0.057187587 0.043474093 0.055759817 -0.07322426
0.054433975 0.0660201 0.015516537 -0.01592495 -0.057212226 0.01931663 -0.00056152046 0.11870733
-0.12269591 -0.030688375 0.022522151 -0.014143005 0.09856631 0.015783995 -0.014311977 0.07382409
-0.06657271 -0.12547179 0.052959032 0.11249155 0.051137187 -0.10585053 0.10610117 -0.11009335
-0.041815847 -0.040396582 0.09670368 -0.007938474 -0.07115865 0.08927501 -0.0023345496 -0.051184162
-0.034111753 0.10985489 0.11323702 -0.08010261 0.0032825172 -0.05928965 -0.11002307 -0.10206349
0.027696326 -0.09513122 -0.013119787 -0.08332878 -0.053098068 -0.07963376 -0.089626804 -0.05351174
-0.059701458 -0.1162357 0.076418936 -0.07994057 0.08610219 -0.10848269 0.05266896 0.02492328
-0.037069753 -0.0454479 -0.035440907 -0.12173568 0.035314918 0.044661 0.013179988 -0.10490948
-0.052539364 0.025602072 0.12327242 0.0650181 -0.0019340217 -0.07828191 0.026091233 -0.03996536
-0.068995625 -0.01543802 -0.05434805 0.090725735 0.035166696 0.11643246 0.010765195 -0.01875189
-0.008614138 -0.0245561 0.104848295 -0.019027278 -0.09659657 0.029118285 0.039037973 0.06887074
0.022718132 0.08768831 -0.05017428 -0.09848817 0.06985879 0.09349267 -0.019754142 -0.0054314733

hidden2.bias f4 [32]
00000000: e3cd 623e 44f4 17bd a606 07be 889e ae3c
00000010: e520 cabc 7e53 743e cb0e 2ebd 68f2 013d
00000020: 6888 003e a222 c9bd 4c6c c0bd 7862 23bd
00000030: 83a9 ccbd ce8c 913d 609f b8bb b8c4 313d
00000040: 04f7 2d3e 7af1 b3bd fa69 143d 4e0b d13d
00000050: 54a8 b73d 101c 8d3e 8c17 03bd c645 f33d
00000060: a0e0 443d aad2 4b3e d4f6 b0bd 48dc 87bd
00000070: e848 cebd f309 56bd ee90 823d 9090 bb3d
0.22148852 -0.037098184 -0.1318613 0.021315828 -0.024673888 0.23859975 -0.042494576 0.031725317
0.12552035 -0.09821059 -0.09395656 -0.03988883 -0.09993269 0.071069345 -0.0056342334 0.043400496
0.1698876 -0.087862924 0.03623388 0.10207234 0.08967653 0.27560472 -0.032004878 0.118785426
0.04806578 0.1990458 -0.08640829 -0.06633812 -0.100724995 -0.052255582 0.063752994 0.091584325

hidden3.weight f4 [16, 32]
00000000: c698 253e e1a9 ffbd ddaf b23d 76e8 b93d
00000010: d6b9 913d fbf5 e6bd 70b0 20be cef1 f93d
00000020: 8c7f 883d 0985 1f3e 0a81 c7bd 23ea 3abd
00000030: 9a20 1e3e 7537 c73d bfeb fa3c 407f 36bd
00000040: 01db 78bd 9b7f 0d3e f59a f2bd b552 07bd
00000050: d633 02be e3e6 9bbd c9a5 233e 85ec 5cbb
00000060: d228 113e fe32 69bc 724a 13be 5469 2cbe
00000070: 58e0 1a3e cf89 a4bd 789c 573d e79d 2d3d
00000080: b91b 793d d457 dabd 1fdc 61bd fcec 603d
00000090: 5e29 a43d 04fb 703e 9c3d 1e3c a297 173e
000000a0: e781 3d3e d74d 18be 18b1 383d 1e43 483d
000000b0: 565b a4bd 4488 063e b26c 873c 31fe 013d
000000c0: 413c d6bc b05e 783c 123d ff3d f91f 21be
000000d0: ce0e 073e eff6 433e b44e 473b 8d28 e73d
000000e0: 15a4 683e 6551 333d 7232 173e d3b1 81bd
000000f0: b7f2 20bd 91ac c43d cf24 cbbd a8fd 233d
00000100: fe12 883e 5377 8dbd 6539 c6bd 1421 b9bd
00000110: 830f 2f3e 6a6a 4c3e 9f5c edbc 7bc0 33be
00000120: aa33 a23e b510 263e 1c8f 033e 2b68 013e
00000130: 4baf 8bbd 0e2e 8abd 0433 2e3d 1863 1fbe
00000140: 9893 5f3e 5bbe 10be 33eb 633e ab0d 76bd
00000150: 5356 153e af17 503e 8bbe 0a3e e545 2abe
00000160: 9e0c 4d3e f259 9e3e 754b 0d3e cfae 5a3d
00000170: 2ebc a8bc 2ca1 69bd 7e9b 94bc 39a2 27be
00000180: 8a09 0dbe 2e7c a3bd 973d 0abe d345 1b3e
00000190: aafe de3d 1e46 2e3e eac6 42bd 8f97 15be
000001a0: 1184 00bd eae7 22be 09ad b4bd 7ad2 b03d
000001b0: 4043 2fbc 5145 f03d 8bba 343e d6de 96bd
000001c0: 7740 7bbd e9c3 33be 174d 32bd cfd2 c33d
000001d0: 3f15 1fbe 1acb 123c dd5c 953d 82eb 2b3e
000001e0: cf81 3b3d 3384 16be b56e 28be c65b 313e
000001f0: f50e 3ebb 0370 67bd a8c0 aa3d c8e3 9b3c
00000200: 380a dd3a a1ea 25be 8cff 3abd 10b2 f3bd
00000210: 0c0e 213d 1c95 18bd 9ea2 b83d 94be 01be
00000220: 4f70 bdbd ec3b f3bd ef4a d63c fe9a 67bc
00000230: 3e4c 013e 4d70 debd 484a 7a3d dee1 7a3d
00000240: bdd9 cfbd fc75 85bb ed31 7f3d f240 023c
00000250: 3fce 883d 3b75 923c e243 52bc 2b3f fabb
00000260: 6558 11be f6a8 3cbd c520 203d e699 8cbd
00000270: 18c7 633d 0e3b e7bd 64bb f7bc 8068 febd
00000280: 2f71 663e e265 edbc e410 6d3d cef9 d5bd
00000290: 7109 c2bd d1da 9c3e 6cf1 173e 4a7c 30be
000002a0: edd1 413e e16b bdbc b07e 623d 016f b3bd
000002b0: 907d e63b 0bf8 c3bd f219 1fbe e050 1dbe
000002c0: 339f 583e 5a24 cabd 53f4 6e3e 993b 82bc
000002d0: d0ff b23d 0a37 e93d 6d24 72bc 681a 24bd
000002e0: 1b47 553e da7e 573e b709 1d3e e3df 0ebe
000002f0: 7695 a5bc e029 d0bd c2a9 cf3d 8359 423d
00000300: d562 93bd 85a8 1abd fc77 0f3e 2c81 08bd
00000310: d464 1abe b202 373d d59a 353d d916 233e
00000320: 08cd 1a3e 0e59 0cbe 78f7 073e d80e 0c3e
00000330: f841 f2bd 1e62 cdbd e5ac 55bd 9fc8 39bc
00000340: cc02 19be a19a 22be d2c6 15be 9c58 013e
00000350: b598 4fbd abb8 093e ff92 22be a5d2 043e
00000360: 772f fe3d e12d 1bbe 69b4 2f3d b236 093e
00000370: 8b7f 24be da13 dcbb 9515 323e b957 db3d
00000380: 77df 07bc ead4 283e f462 17bd 7c1f a93c
00000390: 0147 11be 85a2 12be 4736 d5bd 1a53 113e
000003a0: 37b2 30be ed47 b9bc f6df 3cba 91f9 a4bd
000003b0: 1bed 5abc 6b54 bebd a078 e83d 81c1 223e
000003c0: 27fb 1cbd acb8 51bc 3447 33be 3693 12be
000003d0: 6d57 55bd 3b5b 11bc 0c2a 243e 6620 233c
000003e0: 2930 12be b13a 03be d740 f73d 98e3 10be
000003f0: 4fdc 1e3e fe43 9c3d 4280 8e3c ce24 953d
0.1617156 -0.12483574 0.087249495 0.090775415 0.071155235 -0.11277386 -0.15692306 0.12204324
0.06664953 0.15578093 -0.09741409 -0.045633446 0.15442124 0.097273745 0.03062999 -0.04455495
-0.060755733 0.13818209 -0.11845962 -0.03303786 -0.12715086 -0.076123975 0.15981211 -0.0033710313
0.14175728 -0.014233349 -0.14383867 -0.16837054 0.15124643 -0.080340974 0.052639455 0.042386916
0.060817454 -0.10661283 -0.055141564 0.054913506 0.08015703 0.23533255 0.0096582435 0.14803937
0.18506585 -0.14873444 0.045090765 0.048892133 -0.080252334 0.13137919 0.016531322 0.031736556
-0.026151778 0.015159294 0.1246282 -0.15734853 0.13189241 0.19137166 0.00304119 0.11287031
0.22718842 0.043778796 0.14765337 -0.063327454 -0.03929397 0.09603227 -0.0991913 0.040036827
0.2657699 -0.06907525 -0.09678916 -0.09039512 0.17095761 0.19962469 -0.02897483 -0.17553894
0.31680042 0.1621731 0.1284756 0.12637393 -0.06820544 -0.067470655 0.04252912 -0.15565145
0.21833646 -0.14135115 0.2225769 -0.06007163 0.14583711 0.20321535 0.13549249 -0.16628225
0.20024344 0.30927998 0.13798316 0.053389367 -0.020597544 -0.05703847 -0.01814055 -0.16370477
-0.1377317 -0.0798267 -0.13500057 0.15163355 0.10888417 0.17018935 -0.04755298 -0.14608596
-0.03137595 -0.1590878 -0.08822066 0.08633895 -0.010697186 0.11731971 0.17649285 -0.07366721
-0.061340775 -0.17555203 -0.04353055 0.09561693 -0.15535448 0.008959556 0.07293103 0.16789058
0.045778092 -0.14698867 -0.16448481 0.17320165 -0.0029000614 -0.056503307 0.083375275 0.019029513
0.0016864007 -0.16202785 -0.045653865 -0.11899197 0.039320037 -0.037251577 0.09015392 -0.12670356
-0.09249937 -0.118766636 0.026158778 -0.014136074 0.1262674 -0.108612634 0.061105996 0.06125056
-0.10148952 -0.0040729027 0.062303472 0.0079500545 0.06679963 0.017878165 -0.012833567 -0.0076369247
-0.14193876 -0.04605957 0.03909375 -0.06865291 0.055609792 -0.11290561 -0.030240722 -0.124222755
0.22504114 -0.028979246 0.057877436 -0.10448037 -0.09474457 0.30635694 0.14838189 -0.17234913
0.18927737 -0.02312273 0.0552966 -0.08761407 0.007034011 -0.09568795 -0.15537241 -0.15362883
0.2115448 -0.09870215 0.2333539 -0.015897559 0.087401986 0.11387451 -0.014779192 -0.040064245
0.20827906 0.21044484 0.15335737 -0.13952594 -0.02021287 -0.10164237 0.101398006 0.047448646
-0.07196585 -0.03775837 0.14010614 -0.033326313 -0.15077525 0.044680305 0.044337112 0.15926684
0.15117276 -0.13705847 0.13277996 0.13677537 -0.11828989 -0.1002848 -0.05216684 -0.011339336
-0.14942473 -0.15879299 -0.14626625 0.12631458 -0.050682742 0.13449351 -0.15876387 0.1297098
0.12411397 -0.1515422 0.042896662 0.13399771 -0.16064279 -0.0067162337 0.17391045 0.10710091
-0.008293024 0.1648747 -0.036959603 0.020644896 -0.14187242 -0.14319809 -0.10410743 0.14191857
-0.17255484 -0.022617305 -0.00072050036 -0.080554135 -0.013362194 -0.09293445 0.113511324 0.15894128
-0.038325455 -0.012800377 -0.1750763 -0.14313969 -0.05208533 -0.008871849 0.16031665 0.009956455
-0.14276184 -0.12815358 0.12072914 -0.1414932 0.15513729 0.07630156 0.017395142 0.072824106

hidden3.bias f4 [16]
00000000: 63c4 763d af0f 5a3e 2deb 7f3e 94f1 7ebd
00000010: f30e 37bd ebfa 083d 522f 14be 72b9 923d
00000020: 8bfb 6b3d 4549 b3b8 2f0f 963d ea51 e1bd
00000030: d56f 8e3c 6686 293d 56fa 5f3c 00f6 fe3d
0.060245883 0.21295045 0.24992056 -0.062242106 -0.04469199 0.03344242 -0.14471176 0.07164277
0.057612937 -8.549033e-05 0.07327115 -0.11001952 0.01738731 0.041387938 0.013670525 0.124492645

output.weight f4 [2, 16]
00000000: 5256 05be 1bb5 eb3d dcac aa3e 70d8 d1bd
00000010: b0aa 733d 1590 9b3e 23bc e4bd 68e9 3b3d
00000020: 8b07 123e 276a 6ebe d7db b1bd 7a9a 7d3e
00000030: 1dc8 c1bc 228a 4dbb b231 0fbe 4797 c4bc
00000040: 00df ea3b 7d63 763e a2ec 603e 5467 533e
00000050: a23b 7e3e b917 a03e af5c e9bd 0039 3c3c
00000060: 4852 aebd b9b4 8dbd 9f82 8a3e 421a 673e
00000070: 51e6 6e3e 621b 943e 7709 b9bd ad3d 7f3e
-0.1302121 0.115091525 0.33335006 -0.1024636 0.059488952 0.30383363 -0.11168697 0.04587689
0.1426069 -0.23282681 -0.08684509 0.2476596 -0.023654992 -0.003136285 -0.13983801 -0.023997916
0.007167697 0.2406139 0.21965268 0.20644885 0.24827436 0.312681 -0.11394631 0.011488199
-0.08511788 -0.06919236 0.2705278 0.2256861 0.23330046 0.2892714 -0.090350084 0.24925871

output.bias f4 [2]
00000000: 5fd8 903e 1967 a33e
0.28290078 0.31914595
