laser_model.pth (torch, 14071 bytes, 8 tensors)

hidden1.weight f4 [64, 2]
-0.33611622 -0.676623 0.40294546 -0.4007703 0.24222204 0.6864765 0.272944 -0.23606539
-0.023235979 -0.67878336 0.71233845 -0.5001316 -0.10881819 0.24779893 -0.5219067 0.33637324
0.17537956 0.009026403 -0.41747978 -0.2353818 0.4248907 0.51941746 -0.5234571 0.16718508
-0.4373378 0.4812917 -0.21994013 -0.33741906 0.81591624 0.38908213 0.59623855 -0.47659683
-0.20005852 0.66605943 0.38108212 0.75276893 -0.056840587 -0.42147657 -0.16439985 0.09915653
-0.30150935 -0.48343152 -0.57817596 0.07721024 -0.22748516 -0.5066808 0.5193742 0.22316247
0.25293472 0.8446047 0.57347435 0.3503044 0.26713827 0.59036994 -0.5688377 -0.3866976
0.4829713 0.5019622 -0.17706531 0.44744745 -0.40652412 -0.6909496 -0.5807385 0.44782138
0.8339542 -0.34071547 -0.674173 -0.31956398 -0.1475187 -0.44373566 -0.5563512 -0.22467305
0.5844647 0.7761201 -0.276997 -0.18500443 0.11448484 -0.28280324 0.44927275 -0.24327691
0.30249992 0.54179746 0.4871986 -0.2861914 0.70846933 -0.10217996 -0.38887665 -0.65720665
-0.15782174 -0.21583924 -0.061502196 0.1733848 0.21541862 -0.31988576 0.67848116 -0.31793922
0.5678502 -0.011511083 0.42481908 0.24171066 0.77234703 0.0072387485 0.2774218 0.23159868
-0.20288944 -0.47086257 -0.6836894 0.6492409 0.2688949 0.38105226 0.79332656 0.70948637
-0.01290807 0.022538703 0.4591498 0.7340672 0.2670525 0.6416349 -0.5406132 -0.09755065
0.56777394 -0.31997743 0.3797132 0.27727592 0.41563147 0.63172126 -0.3253579 -0.16476408
00000000: 6d17 acbe 2a37 2dbf de4e ce3e c431 cdbe
00000010: 0e09 783e edbc 2f3f 51bf 8b3e 20bb 71be
00000020: 6159 bebc bfc4 2dbf d05b 363f a008 00bf
00000030: 12dc debd 01bf 7d3e ad9b 05bf 1d39 ac3e
00000040: b396 333e 7ae3 133c e9bf d5be ed07 71be
00000050: 468b d93e 8bf8 043f 4901 06bf 9132 2b3e
00000060: bdea dfbe de6b f63e fc37 61be 31c2 acbe
00000070: e3df 503f c635 c73e 17a3 183f 8004 f4be
00000080: 24dc 4cbe df82 2a3f 321d c33e 77b5 403f
00000090: add1 68bd c7cb d7be 6f58 28be 9412 cb3d
000000a0: 6f5f 9abe 5684 f7be 5703 14bf 6720 9e3d
000000b0: dff1 68be d5b5 01bf b5f5 043f b484 643e
000000c0: a980 813e 0338 583f 37cf 123f 195b b33e
000000d0: 59c6 883e 7c22 173f 599f 11bf 3afd c5be
000000e0: 0448 f73e 9880 003f 9c50 35be d517 e53e
000000f0: ee23 d0be 13e2 30bf 47ab 14bf d848 e53e
00000100: 067e 553f 4272 aebe 9a96 2cbf e49d a3be
00000110: 240f 17be 5231 e3be 086d 0ebf b110 66be
00000120: 7b9f 153f cfaf 463f 8dd2 8dbe cd71 3dbe
00000130: 0777 ea3d 96cb 90be 1407 e63e 951d 79be
00000140: 45e1 9a3e 3db3 0a3f 1872 f93e ae87 92be
00000150: 3f5e 353f ba43 d1bd d71a c7be b23e 28bf
00000160: 069c 21be f604 5dbe bae9 7bbd c98b 313e
00000170: b396 5c3e 11c8 a3be f1b0 2d3f eec8 a2be
00000180: a15e 113f fb98 3cbc e381 d93e 0083 773e
00000190: 89b8 453f 0633 ed3b 3b0a 8e3e 3428 6d3e
000001a0: 40c2 4fbe e614 f1be 4506 2fbf a734 263f
000001b0: 98ac 893e 4819 c33e 7317 4b3f e6a0 353f
000001c0: 5f7c 53bc 16a3 b83c af15 eb3e d4eb 3b3f
000001d0: 1bbb 883e 2f42 243f a065 0abf a3c8 c7bd
000001e0: a259 113f 15d4 a3be c569 c23e 1cf7 8d3e
000001f0: a6cd d43e 7cb8 213f 5095 a6be eab7 28be

hidden1.bias f4 [64]
-0.013940997 0.7600172 -0.49002486 -0.032673694 0.34345213 0.28807545 0.6258706 0.6423427
0.20504873 -0.27328598 0.092714116 -0.41506612 0.20496695 0.0933363 -0.4448705 -0.48529547
0.42735824 0.54433215 0.32398972 0.6203406 0.6294962 -0.70078576 0.018236773 0.6984012
-0.05860762 0.6590754 -0.038841262 0.5257246 -0.5461286 0.685141 0.24137221 0.50437194
0.38729784 0.39745042 -0.23716757 -0.10854145 0.6685454 -0.14152549 0.38187245 -0.36016402
-0.24879982 0.7877083 0.4095003 0.0019546023 0.33306345 0.011595441 -0.50009507 -0.5103727
0.2939336 0.5562348 -0.1855699 0.30986995 0.34205243 0.5817137 0.33848533 0.31135377
0.31273606 -0.30377942 0.6237533 -0.04532059 0.047809824 0.33439168 -0.33619204 0.56885374
00000000: c868 64bc 7d90 423f 8ae4 fabe dad4 05bd
00000010: f5d8 af3e a07e 933e 0e39 203f 9270 243f
00000020: 4bf8 513e 24ec 8bbe e6e0 bd3d 8c83 d4be
00000030: dbe2 513e 1a27 bf3d 11c6 e3be a678 f8be
00000040: b3ce da3e 5a59 0b3f fbe1 a53e a4ce 1e3f
00000050: aa26 213f b266 33bf 4965 953c 6cca 323f
00000060: 8b0e 70bd 2ab9 283f 0418 1fbd e395 063f
00000070: 15cf 0bbf 6765 2f3f 472a 773e 851e 013f
00000080: e74b c63e 9f7e cb3e 0edc 72be fb4a debd
00000090: cb25 2b3f 0fec 10be c984 c33e 6b67 b8be
000000a0: 61c5 7ebe 40a7 493f 06aa d13e c918 003b
000000b0: 4b87 aa3e cefa 3d3c 3b06 00bf c9a7 02bf
000000c0: 777e 963e 6765 0e3f 0906 3ebe 46a7 9e3e
000000d0: 7f21 af3e 30eb 143f f34d ad3e c369 9f3e
000000e0: f11e a03e fa88 9bbe 4cae 1f3f 15a2 39bd
000000f0: 3cd4 433d 6335 ab3e 5d21 acbe 66a0 113f

hidden2.weight f4 [32, 64]
0.11791584 0.25375885 0.18575306 0.03295572 0.06276296 0.016188867 -0.06906541 0.06719582
0.18150125 -0.013738602 0.20730561 0.0532154 -0.088171646 0.06217894 0.07854307 0.16774072
0.08559258 0.24207929 0.008148953 0.09024267 0.039531857 -0.049487174 0.0007162243 0.1993804
0.2164983 0.14069776 0.08966997 0.020575643 0.022611938 -0.008097962 -0.07115577 -0.09644064
0.19457789 -0.080469966 0.06410098 0.10575917 0.08491392 0.036362857 0.06409701 0.25696915
0.06989484 0.11544588 0.045649648 -0.06273103 -0.11743274 0.03732364 0.16759928 0.25566092
0.15922907 0.21653575 0.16923578 0.19609362 0.029134244 0.049670354 0.023442496 0.18273345
0.010973033 0.094024554 0.20299326 0.09540881 0.19317776 0.06420144 0.11465688 -0.11673081
-0.023369 0.027997106 0.036670357 -0.116422966 -0.008416921 -0.022907048 0.005557671 -0.111881316
-0.091569036 0.087775975 0.029388249 0.016709805 0.004962057 0.05044678 -0.06809205 0.076381594
0.092767 0.039920762 -0.119537115 0.09674923 -0.09315479 0.06497611 -0.1089232 0.07688071
-0.07454111 0.10728191 -0.032738775 -0.053336486 0.07597597 0.092883185 -0.098012626 0.079622164
-0.073092654 -0.073792785 0.07709502 0.036177203 0.057843313 -0.02321972 -0.06737085 -0.09756683
-0.10345313 -0.12234163 0.03423375 0.05128926 -0.09284632 0.03308241 -0.034925938 -0.11379263
-0.10135631 0.122477844 0.102704585 -0.078581825 0.028582305 0.07093644 0.005312592 0.11307241
-0.10984799 -0.020459354 0.0012829006 -0.015590832 -0.09767614 -0.102051914 -0.013461068 -0.056221172
-0.09797658 0.11839495 0.17101207 0.21593568 0.0614893 0.01017253 0.018539608 -0.055362403
0.024846341 0.090348095 0.0888454 0.11782293 -0.042705655 0.03366758 0.19169416 0.1886487
-0.007599652 0.2121603 0.06070988 0.06027767 -0.0024938285 -0.0315028 0.03862995 0.1511282
0.21337116 0.15627588 0.049322534 0.011136338 0.20042157 -0.11510886 0.03407976 0.09250453
0.05528396 -0.11449492 -0.04641202 0.06477451 0.18857247 0.031602785 0.16598794 0.20795353
0.033959795 0.22404382 0.037138924 0.09058806 -0.1100142 -0.09464784 0.21908559 0.00011241194
0.11046492 0.18110277 0.12639466 0.15780884 0.013254598 -0.0006913841 0.13961369 0.16239071
0.09106919 0.073764876 0.21264765 0.042069092 0.19114633 0.18156329 0.15213615 0.021178305
0.1211763 0.06287199 0.11994687 0.06316124 -0.04763958 -0.03654608 -0.06211379 0.050538212
-0.03447762 0.100079596 -0.004036188 -0.030930743 0.023720399 0.08590077 0.01791738 0.09800193
-0.025410697 0.013922498 0.1218992 -0.030131191 -0.09864336 -0.1046934 0.0524925 -0.11051409
-0.013086796 -0.0062076002 -0.09645587 -0.075273275 -0.01514183 -0.029668957 -0.020060077 0.056853145
0.01620254 -0.058502436 0.10162163 0.017325073 0.034263566 0.080880195 -0.109061286 -0.095416576
-0.056637436 -0.0401254 -0.017553166 -0.0046294183 -0.09063357 0.020766124 -0.03822702 -0.012725189
0.06765789 0.08488305 -0.06311202 0.06771739 -0.07098141 -0.016667724 0.027622193 -0.047147572
-0.011719093 -0.08763754 0.043533728 -0.06522158 -0.110416576 0.10552862 -0.05757512 -0.035718724
00000000: dc7d f13d aeec 813e 0d36 3e3e 94fc 063d
00000010: de89 803d 849e 843c 2a72 8dbd f69d 893d
00000020: 77db 393e e017 61bc ec47 543e 64f8 593d
00000030: 5693 b4bd 58af 7e3d 30db a03d 39c4 2b3e
00000040: 2a4b af3d a2e3 773e 3083 053c 26d1 b83d
00000050: 28ec 213d 10b3 4abd 00c1 3b3a 602a 4c3e
00000060: bbb1 5d3e 1313 103e e4a4 b73d 408e a83c
00000070: ac3c b93c 50ad 04bc 1eba 91bd ac82 c5bd
00000080: 6d3f 473e 70cd a4bd 6047 833d 4498 d83d
00000090: 59e7 ad3d 38f1 143d 4b45 833d 7691 833e
000000a0: 0725 8f3d e46e ec3d 20fb 3a3d 2079 80bd
000000b0: 9480 f0bd ace0 183d 259f 2b3e fde5 823e
000000c0: f20c 233e 8cbb 5d3e 254c 2d3e c4cc 483e
000000d0: f0aa ee3c 2473 4b3d 7a0a c03c 7a1e 3b3e
000000e0: 3cc8 333c f28f c03d 77dd 4f3e b265 c33d
000000f0: 64d0 453e 0b7c 833d 3ad1 ea3d 9010 efbd
00000100: 5870 bfbc 305a e53c a833 163d 2a6f eebd
00000110: 20e7 09bc 90a7 bbbc 201d b63b 0822 e5bd
00000120: 8c88 bbbd e4c3 b33d a0bf f03c 00e3 883c
00000130: c098 a23b 48a1 4e3d d873 8bbd f46d 9c3d
00000140: a0fc bd3d f483 233d e0cf f4bd 7624 c63d
00000150: f0c7 bebd 3212 853d 2013 dfbd a273 9d3d
00000160: 02a9 98bd 9eb6 db3d 1819 06bd 5c77 5abd
00000170: 4a99 9b3d 8a39 be3d d8ba c8bd f210 a33d
00000180: 9ab1 95bd ac20 97bd fee3 9d3d 8c2e 143d
00000190: 1ced 6c3d 4837 bebc baf9 89bd 1ed1 c7bd
000001a0: 3cdf d3bd 408e fabd b038 0c3d b014 523d
000001b0: 3626 bebd 6c81 073d 800e 0fbd 1c0c e9bd
000001c0: e693 cfbd aad5 fa3d c856 d23d 82ef a0bd
000001d0: 7025 ea3c 2047 913d 4015 ae3b 8292 e73d
000001e0: fcf7 e0bd 609a a7bc 0027 a83a b070 7fbc
000001f0: 6e0a c8bd 9800 d1bd d08b 5cbc 2c48 66bd
00000200: f2a7 c8bd 0d79 f23d ca1d 2f3e 3e1e 5d3e
00000210: 34dc 7b3d afaa 263c 60e0 973c b0c3 62bd
00000220: 8e8a cb3c 6c08 b93d 94f4 b53d 264d f13d
00000230: 20ec 2ebd 04e7 093d 794b 443e 202d 413e
00000240: 8006 f9bb 8d40 593e ecaa 783d b8e5 763d
00000250: 806f 23bb 1409 01bd 703a 1e3d 5ac1 1a3e
00000260: f87d 5a3e c906 203e 6d06 4a3d 3075 363c
00000270: 503b 4d3e 32be ebbd 3897 0b3d 0473 bd3d
00000280: 6f71 623d 507c eabd 881a 3ebd 80a8 843d
00000290: 2419 413e ec71 013d bef8 293e c5f1 543e
000002a0: 6d19 0b3d be6b 653e fc1e 183d 3c86 b93d
000002b0: 204f e1bd bad6 c1bd f957 603e b3be eb38
000002c0: 6f3b e23d 0173 393e 9a6d 013e a498 213e
000002d0: d029 593c 003e 35ba e4f6 0e3e c049 263e
000002e0: 7c82 ba3d 0a12 973d 4ec0 593e a450 2c3d
000002f0: ddbb 433e baeb 393e 94c9 1b3e 207e ad3c
00000300: 482b f83d 08c3 803d b4a6 f53d ae5a 813d
00000310: b821 43bd 58b1 15bd 086b 7ebd 2801 4f3d
00000320: 6838 0dbd 88f6 cc3d 0042 84bb 7862 fdbc
00000330: 4851 c23c beec af3d 78c7 923c 3cb5 c83d
00000340: 182a d0bc 301b 643c 4aa6 f93d b0d5 f6bc
00000350: 8805 cabd 7e69 d6bd 6002 573d 3655 e2bd
00000360: 006a 56bc 2069 cbbb a88a c5bd e028 9abd
00000370: 7015 78bc 500c f3bc 0855 a4bc d8de 683d
00000380: 30bb 843c 40a0 6fbd 001f d03d 50ed 8d3c
00000390: f457 0c3d 84a4 a53d 865b dfbd c469 c3bd
000003a0: a8fc 67bd 885a 24bd a8cb 8fbc 60b2 97bb
000003b0: 189e b9bd b81d aa3c f093 1cbd 507d 50bc
000003c0: 3890 8a3d 2ad7 ad3d e040 81bd 6aaf 8a3d
000003d0: b45e 91bd c08a 88bc f047 e23c d01d 41bd
000003e0: 7001 40bc 507b b3bd 6c50 323d e492 85bd
000003f0: 1622 e2bd 641f d83d e4d3 6bbd cc4d 12bd

hidden2.bias f4 [32]
0.23379396 0.046257883 0.15327074 0.03815423 0.1756656 0.006504819 -0.07360494 0.12207602
-0.08587752 0.1612324 0.24557047 0.09421545 -0.037863463 -0.04599072 0.15875316 0.07884073
0.192798 0.03034023 -0.11753488 0.107431635 0.09612073 0.11367578 0.021602392 0.020052299
0.11433329 -0.007979646 0.09207773 0.13961816 0.0953189 0.11782771 -0.09722206 0.25183833
00000000: af67 6f3e e878 3d3d 01f3 1c3e 9c47 1c3d
00000010: afe1 333e 6026 d53b 30be 96bd fe02 fa3d
00000020: 8ee0 afbd 1b1a 253e d376 7b3e 08f4 c03d
00000030: b816 1bbd c460 3cbd 3090 223e 4077 a13d
00000040: d76c 453e 138c f83c 21b6 f0bd 1e05 dc3d
00000050: f2da c43d d9ce e83d 80f7 b03c b844 a43c
00000060: 9227 ea3d 10bd 02bc 4093 bc3d 10f8 0e3e
00000070: 8e36 c33d a84f f13d 5c1c c7bd f4f0 803e

hidden3.weight f4 [16, 32]
0.23929949 0.055524405 0.065228514 0.14334044 0.0031225397 0.03682231 0.13014403 0.06565442
-0.16172045 0.20287436 0.29079235 0.27588987 0.025582694 0.003916622 0.221317 -0.069140285
0.115945995 0.29937738 0.002661696 -0.011932468 -0.002713372 0.2856638 -0.14039235 -0.073418416
0.14535846 0.122757226 -0.03686157 0.23794425 0.062373944 0.25694418 0.12684582 0.062465318
0.12608008 -0.12187884 0.21836786 -0.12789948 0.19820888 0.17642479 -0.13313334 -0.1651504
0.110434644 0.16617207 0.2861251 0.21794327 0.10366241 -0.10055454 -0.021183979 0.004563142
0.17770942 0.21598142 -0.11705758 0.077927165 0.12258371 -0.015370481 -0.07295354 -0.016281053
-0.06540173 0.1103552 -0.039343365 0.22620338 -0.16691223 0.13790873 0.13399594 0.27641377
0.044807695 0.0006476495 0.14629482 -0.042298913 -0.092504844 -0.09859431 -0.0075515984 0.065162756
0.06844363 0.086855434 0.02824435 -0.12015005 0.043934252 -0.084637865 -0.03280924 -0.07034836
0.060444213 -0.08545659 -0.106133655 0.15695274 0.15835935 -0.052008446 0.06447387 -0.055191256
0.038543314 0.029104631 -0.010120575 0.037087824 -0.122070864 -0.1888704 -0.010461354 -0.07407963
0.19459401 0.044590164 0.16805826 0.11317613 0.24985181 0.0031802747 0.1356801 0.06327626
-0.17192018 0.19574739 0.15905815 0.11294203 0.09475517 -0.16902715 0.29440847 0.021735048
0.11248967 0.094575234 -0.07690567 0.14622927 -0.0033819473 0.2147622 -0.15437911 -0.06413873
0.16583814 -0.07706579 -0.1304694 0.09345539 0.16110227 0.30433595 -0.044635747 0.23324302
0.0039732642 -0.06207314 0.1572178 -0.14039482 0.15986009 0.026606841 0.040579133 0.15523636
-0.047541667 -0.18149085 0.115380086 -0.06948623 0.09181821 0.16284904 -0.118283324 -0.16260773
-0.17752546 0.08663849 0.13710171 -0.08194835 -0.12601928 0.027637 0.13659084 -0.16916409
0.1371454 0.057938725 0.115524575 -0.10884768 0.012481684 0.16177563 0.07983793 -0.07900748
0.10063773 -0.14821567 0.2412176 0.03844041 0.098677784 0.067540914 0.10083456 -0.1624836
-0.054456383 0.2529829 0.15873903 0.035991136 -0.09326356 0.067759044 0.08790986 -0.099446036
0.1796466 0.013035784 -0.10352573 -0.06932952 0.032785296 0.22212811 -0.17174019 -0.082487345
-0.05737758 -0.07049756 -0.16638553 0.23523775 0.16469675 0.04751238 0.12501307 -0.011757662
-0.14885338 0.031925984 0.17255636 -0.13493374 0.1357909 -0.083379425 0.11838215 -0.04145627
0.12104185 -0.15853149 0.10890819 -0.11265323 0.011225813 0.07544611 -0.0066431863 0.16662163
0.005356843 0.12634712 -0.016350448 0.11238311 -0.0492036 -0.15293291 -0.08183835 -0.109808385
-0.13109496 0.12259498 0.1058792 -0.03769144 -0.06760858 -0.14576629 0.17212707 0.15698145
-0.17243537 0.16899876 0.061491154 -0.09434393 0.13654307 0.037106737 -0.15604763 0.12256588
-0.008442836 0.06477958 -0.09732552 -0.07943345 0.14174272 -0.09509313 -0.0029143281 0.1299919
0.11790429 -0.009758828 -0.17326671 -0.10326452 0.14598995 -0.09771647 0.012596218 0.02482384
0.13517427 -0.0823946 -0.08288521 0.11792633 -0.025350992 -0.11922534 -0.09617127 0.04626449
00000000: ed0a 753e 8f6d 633d 8796 853d d6c7 123e
00000010: 86a3 4c3b fed2 163d 7a44 053e d375 863d
00000020: 0c9a 25be 4cbe 4f3e bce2 943e 7041 8d3e
00000030: cc92 d13c 0257 803b eca0 623e 6c99 8dbd
00000040: 1875 ed3d fe47 993e d96f 2e3b 6680 43bc
00000050: d4d2 31bb 8742 923e 03c3 0fbe 655c 96bd
00000060: d9d8 143e 2468 fb3d 28fc 16bd a8a7 733e
00000070: d27b 7f3d 308e 833e dfe3 013e a2db 7f3d
00000080: 231b 013e 9d9b f9bd d39b 5f3e 15f8 02be
00000090: 45f7 4a3e b3a8 343e 1b54 08be 301d 29be
000000a0: 8f2b e23d 0329 2a3e fd7e 923e 852c 5f3e
000000b0: f54c d43d 8aef cdbd 068a adbc 6986 953b
000000c0: 75f9 353e 3c2a 5d3e e2bb efbd 4798 9f3d
000000d0: 2b0d fb3d 78d4 7bbc aa68 95bd d85f 85bc
000000e0: 58f1 85bd e801 e23d 8226 21bd dca1 673e
000000f0: 0aeb 2abe f237 0d3e 3b36 093e 1b86 8d3e
00000100: 4688 373d 06c7 293a 4fce 153e a041 2dbd
00000110: 2e73 bdbd d0eb c9bd 6673 f7bb 0d74 853d
00000120: 2d2c 8c3d 43e1 b13d b260 e73c 3b11 f6bd
00000130: 67f4 333d 9e56 adbd fb62 06bd cd12 90bd
00000140: 5a94 773d dd03 afbd 9a5c d9bd 38b8 203e
00000150: f428 223e cf06 55bd e00a 843d 3a10 62bd
00000160: 98df 1d3d d66c ee3c c5d0 25bc 67e9 173d
00000170: 4a00 fabd 3e67 41be 1966 2bbc 10b7 97bd
00000180: a743 473e 2da4 363d 7717 2c3e e3c8 e73d
00000190: 27d9 7f3e 286c 503b b9ef 0a3e fc96 813d
000001a0: d80b 30be 0172 483e 24e0 223e 274e e73d
000001b0: 000f c23d 7415 2dbe b5bc 963e b30d b23c
000001c0: fc60 e63d a9b0 c13d b880 9dbd 20bd 153e
000001d0: a9a3 5dbb 9fea 5b3e 8f15 1ebe 2b5b 83bd
000001e0: 79d1 293e abd4 9dbd c599 05be 8a65 bf3d
000001f0: fef7 243e ecd1 9b3e f9d3 36bd 42d7 6e3e
00000200: 2832 823b 6840 7ebd b4fd 203e a9c3 0fbe
00000210: 5db2 233e 97f6 d93c 4e36 263d 48f6 1e3e
00000220: 0dbb 42bd bdd8 39be 654c ec3d cc4e 8ebd
00000230: 300b bc3d e6c1 263e 873e f2bd a482 26be
00000240: 3cc9 35be 856f b13d 6464 0c3e 89d4 a7bd
00000250: 330b 01be fd66 e23c 78de 0b3e 5a39 2dbe
00000260: d86f 0c3e 2851 6d3d 2698 ec3d 88eb debd
00000270: fa7f 4c3c 83a8 253e 1282 a33d acce a1bd
00000280: 271b ce3d d9c5 17be bf01 773e b173 1d3d
00000290: 9417 ca3d e452 8a3d 5a82 ce3d 1a62 26be
000002a0: a80d 5fbd fa86 813e 7c8c 223e 716b 133d
000002b0: f700 bfbd 41c5 8a3d 160a b43d 5daa cbbd
000002c0: 47f5 373e 0a94 553c 4c05 d4bd a3fc 8dbd
000002d0: e049 063d 8d75 633e a9dc 2fbe 20ef a8bd
000002e0: c104 6bbd 0661 90bd f860 2abe 2ae2 703e
000002f0: 44a6 283e 579c 423d 6d03 003e 35a3 40bc
00000300: 056d 18be d2c4 023d 9db2 303e 122c 0abe
00000310: c50c 0b3e d5c2 aabd 5772 f23d 0dce 29bd
00000320: cae4 f73d 1456 22be 420b df3d bdb6 e6bd
00000330: 79ec 373c 7d83 9a3d 16af d9bb dc9e 2a3e
00000340: 7588 af3b 2461 013e 60f1 85bc 1e29 e63d
00000350: b789 49bd 729a 1cbe dd9a a7bd 38e3 e0bd
00000360: c23d 06be 1413 fb3d 32d7 d83d 5762 1abd
00000370: 5e76 8abd c243 15be 1442 303e bfbf 203e
00000380: e692 30be 030e 2d3e 26de 7b3d 6437 c1bd
00000390: f2d1 0b3e 3cfd 173d f3ca 1fbe d203 fb3d
000003a0: d253 0abc 28ab 843d 9a52 c7bd 01ae a2bd
000003b0: 0125 113e 30c0 c2bd 50fe 3ebb 991c 053e
000003c0: ce77 f13d 7ee3 1fbc d46c 31be 597c d3bd
000003d0: 647e 153e 931f c8bd 5e60 4e3c 5e5b cb3c
000003e0: 206b 0a3e 80be a8bd b9bf a9bd 5c83 f13d
000003f0: e2ac cfbc 6a2c f4bd 71f5 c4bd d57f 3d3d

hidden3.bias f4 [16]
0.21631932 0.21194384 -0.14961515 0.14640991 -0.16895157 -0.041486334 0.05451581 -0.02349276
-0.15757743 0.030742364 -0.10423345 0.061905965 0.05944286 0.08876466 0.05961212 0.008479789
00000000: d082 5d3e ce07 593e b734 19be 7bec 153e
00000010: a401 2dbe 93ed 29bd f84b 5f3d e373 c0bc
00000020: fa5b 21be 69d7 fb3c 5978 d5bd 1c91 7d3d
00000030: 5b7a 733d 3fca b53d d72b 743d d0ee 0a3c

output.weight f4 [2, 16]
0.08199537 0.2678113 -0.23136245 0.022413164 0.15787692 0.18004236 0.21253961 -0.1677537
-0.13056265 0.09223887 -0.012796909 -0.07700282 0.17325127 -0.108915925 0.18455124 0.18361083
0.33915672 0.19583903 -0.045305703 0.30197525 -0.19383223 0.3155222 0.052553862 -0.14262986
-0.15206343 0.1082608 0.006366402 -0.12361804 0.11725354 0.3360353 0.15637368 0.21261051
00000000: 30ed a73d 901e 893e 47ea 6cbe d09b b73c
00000010: 7daa 213e 065d 383e fca3 593e a0c7 2bbe
00000020: 37b2 05be bce7 bc3d 20aa 51bc a8b3 9dbd
00000030: c868 313e 500f dfbd 00fb 3c3e 7a04 3c3e
00000040: f3a5 ad3e 078a 483e 7992 39bd 809c 9a3e
00000050: f57b 46be 208c a13e b842 573d 900d 12be
00000060: 84b6 1bbe d7b7 dd3d 409d d03b 742b fdbd
00000070: a022 f03d d20c ac3e 6c20 203e 92b6 593e

output.bias f4 [2]
0.32101652 -0.08419563
00000000: 475c a43e c26e acbd
