laser_model.pth (torch, 14839 bytes, 8 tensors)

hidden1.weight f4 [64, 5]
000000 3a 93 b9 3e c4 9b 07 be e4 0d b7 bd 5b eb 3c bd
       0.36245137 -0.13243014 -0.08938196 -0.04612289
000010 14 d2 3e be 5c f7 f2 bd c9 2a 94 3e af a8 8d 3e
       -0.18634826 -0.11863586 0.28938892 0.27667758
000020 d5 7f 88 be 26 83 a3 be 2a 94 c9 bd 3d 4c 7e be
       -0.26660028 -0.31935996 -0.09842713 -0.2483377
000030 02 4b 8a 3d db 8d b7 3e f6 8f a0 3c 8e a9 51 be
       0.06752588 0.35850415 0.019599896 -0.20474836
000040 20 df ac be 71 63 c2 be c8 d7 a4 be 51 b1 16 3d
       -0.3376398 -0.37966493 -0.32195878 0.036790196
000050 68 d6 ea 3e 86 9b 0b be a5 98 48 be 4c d6 f8 3e
       0.45866704 -0.13633546 -0.1958948 0.48600996
000060 e4 10 f0 3e 76 69 86 be 7c 41 a0 3e 60 e3 1c 3f
       0.46887887 -0.26252335 0.3129996 0.61284447
000070 7c fe ef 3e ba 64 21 be 18 f1 fc be 19 7e 7f 3d
       0.46873844 -0.1576108 -0.4940269 0.062376115
000080 27 83 26 be 51 88 62 3e 4c 21 4e bd e9 53 c4 3d
       -0.16260968 0.22122313 -0.050324723 0.09586317
000090 11 96 1a be b8 5d 88 3d 7d 4e da 3e c2 d5 a3 3e
       -0.15096308 0.066585004 0.42638007 0.31999022
0000a0 57 fb bf be 6a 77 24 be 8f 49 c6 3e 33 96 42 3e
       -0.37496445 -0.16061178 0.38727996 0.19002609
0000b0 ec 71 4c be 7b 46 ee bc 1b 8c 4f 3e 19 aa 54 be
       -0.19965333 -0.029086342 0.2026829 -0.20768012
0000c0 64 5a 45 be c5 99 9e 3e 6f c1 dd 3c 6d 5c 01 3e
       -0.19272763 0.30976692 0.027069775 0.12632914
0000d0 b7 24 4f 3e bf b5 29 3e 32 79 f9 3e ea 21 08 3f
       0.2022885 0.16573237 0.48725277 0.5317675
0000e0 27 5a d4 3e 90 3d a8 bd 95 cd 10 3e 17 64 18 be
       0.4147503 -0.08214867 0.14140923 -0.14881931
0000f0 98 be 11 3f b6 b8 04 3f 3f 2e fa 3e a8 fc 1b be
       0.5693145 0.51844347 0.48863408 -0.152331
000100 3b ce c4 3c c8 43 ca bc 72 5b 91 3e 43 1a 6a 3e
       0.02402412 -0.024690524 0.2839008 0.2286158
000110 7c ae 73 be 32 32 83 3e b5 3d ef 3e 9b b9 4c be
       -0.2379703 0.25624233 0.46726766 -0.19992678
000120 12 4e 5d be 19 09 8f 3e a4 b4 db 3e ba 7b c3 be
       -0.21611813 0.27936628 0.42911255 -0.38180333
000130 03 07 5b 3e e2 27 6b be 15 e5 8c be 00 d9 ee 3d
       0.21389394 -0.22964433 -0.27518526 0.11662483
000140 e1 04 5f be fb 73 a8 3e 64 c1 01 be 81 4c f5 bd
       -0.21779205 0.32900986 -0.12671429 -0.119774826
000150 38 4c 63 be 29 b6 0a 3f b4 ec 00 3f 2a 7d ac bb
       -0.22197044 0.54184204 0.5036118 -0.005263944
000160 dc 44 d0 be 82 bd 69 3e 12 f1 32 bc 60 85 18 3d
       -0.40677536 0.22826198 -0.010921733 0.03723657
000170 b7 a8 02 3f 4c f5 c0 3e d7 fe ad bd 23 ac c8 3e
       0.5103869 0.37687147 -0.084958725 0.3919383
000180 7a b0 0f 3f a3 85 23 be da 73 f0 3e c3 7b 07 3f
       0.56128657 -0.15968947 0.46963388 0.5292322
000190 95 36 b0 3e b8 b8 73 be 61 a0 1a 3e 02 ff ea 3e
       0.34416643 -0.23800933 0.15100242 0.4589768
0001a0 81 14 9f 3e b3 85 0d 3f 16 86 ce 3e ff 33 11 3f
       0.3107033 0.55282134 0.40336674 0.56719965
0001b0 b4 3b b6 be dc 36 c9 3e ab a0 61 be 81 0e ae 3e
       -0.35592425 0.39299667 -0.22033946 0.3399544
0001c0 dd fa f7 3d 63 ab 85 be 35 3d 7a be 75 9e 94 3e
       0.12108395 -0.2610732 -0.24437411 0.29027143
0001d0 8e f9 e3 be b6 63 10 3d 47 4c 9c 3e fc 31 ac be
       -0.44526333 0.03525134 0.30526945 -0.33631885
0001e0 6e 6a e2 3e 22 7f 11 3d 6b 97 5b 3c 6c 09 bd be
       0.44221824 0.035521634 0.0134028 -0.3692125
0001f0 f1 55 b3 be 4b 2d 8a 3e ce 2a e7 3e 15 5c 1a 3e
       -0.35026506 0.2698768 0.45149845 0.15074189
000200 71 69 a6 3e 66 a0 4e 3e 7e 9e 8f bc cc 74 a5 3c
       0.3250232 0.20178375 -0.01753163 0.020197295
000210 72 f3 eb 3d 6b 08 a5 3e 77 37 f2 3e 4d 31 6e be
       0.11521043 0.32232985 0.4730794 -0.23260994
000220 48 ef 03 3d 0b dd 89 3e 62 e5 4f 3b 8b 2d af 3e
       0.03221062 0.26926455 0.0031722416 0.34214434
000230 ae 1a c3 3e 76 08 05 be 71 e4 08 3d 3c 3f 2d 3e
       0.38106292 -0.12991509 0.033420984 0.16918653
000240 e3 17 c4 be 1e 6b 00 bc 8b d5 3f be 20 f9 08 bb
       -0.38299474 -0.007838039 -0.18733804 -0.0020900443
000250 b2 8e f8 bd 92 9c d1 bd 93 5d 81 3e 79 e0 3d bd
       -0.12136592 -0.102349415 0.25266704 -0.046356652
000260 40 30 0c 3f fb f5 b5 3e 43 81 1e be 30 22 99 3e
       0.54761124 0.3553923 -0.15478997 0.29908895
000270 6d a5 da 3e a8 c1 e1 bd aa 2d 7e 3e b8 3a 9a 3e
       0.42704335 -0.11023265 0.24822107 0.30122924
000280 82 ca d7 be 33 95 a7 bd 6b 3a 20 3e b6 fb 94 be
       -0.4214669 -0.08182754 0.15647285 -0.2909829
000290 36 0a 63 3e 12 ad 9d 3e 3d 02 a1 3e a2 9a d1 bc
       0.22171864 0.30796105 0.3144702 -0.02558643
0002a0 b8 b1 22 3e 5e 57 30 bd ce 6a 46 be bd 88 72 be
       0.15888107 -0.04305207 -0.1937668 -0.23684974
0002b0 0f 42 00 3e 79 d8 e6 3e 24 e0 02 3f 2b 1e 5a be
       0.125252 0.4508703 0.5112326 -0.2130057
0002c0 ec 52 70 be 00 ca 37 3c 7b ea b0 be 19 8f 39 be
       -0.23469132 0.011217594 -0.34553894 -0.18120994
0002d0 cf d9 d2 3e ec 77 87 3d d0 c6 b7 bd da af 31 be
       0.411818 0.0661467 -0.08973467 -0.17352238
0002e0 b2 62 c9 3e f1 68 a0 bc 43 bf 83 be c4 a0 be be
       0.3933311 -0.01958129 -0.2573186 -0.3723203
0002f0 1e 74 7a 3d bf 4e 3d bd 54 11 8f 3e a1 5e 24 be
       0.061145894 -0.046217676 0.27942908 -0.16051723
000300 32 bf 2a be 9d 36 ab 3e e9 3c 65 3d 8a 44 0b 3c
       -0.16674498 0.33440104 0.05596629 0.008500228
000310 48 82 39 bd f1 09 93 3d 86 0f 2d be fb e9 8c bd
       -0.04529026 0.071796305 -0.16900453 -0.06880566
000320 ce 5b ed bd d6 e3 d3 3e c3 0f d4 3e 0f a0 37 be
       -0.11589776 0.41384763 0.41418275 -0.17932151
000330 56 d4 c4 bd da 99 5a 3e 71 94 ef 3e 66 a8 0c 3f
       -0.09610812 0.21347752 0.4679294 0.54944456
000340 cc bf d1 3e 1f 57 ff 3e 29 74 9f be f8 82 13 3e
       0.40966642 0.49871156 -0.3114331 0.1440543
000350 de de 91 bd fc 7c 83 be 78 12 0e 3e f6 29 69 be
       -0.07122587 -0.25681293 0.13874233 -0.22769913
000360 53 6c a4 be 5c 7b b3 3e 2d 65 9c be 22 2c d1 be
       -0.32113895 0.35055053 -0.3054594 -0.40853983
000370 01 47 07 3e 60 f2 9c be 52 3c 8a be 77 48 9d be
       0.1321068 -0.30653667 -0.26999146 -0.3071935
000380 0d 8e b6 be e2 27 06 be 2c ad e5 bd a0 d7 cd 3d
       -0.3565525 -0.13101152 -0.112146705 0.10050893
000390 38 d5 8c 3e 9c fa 99 3e 53 2c 4c be 73 92 03 3e
       0.27506423 0.30074012 -0.19938783 0.12848835
0003a0 e5 0f e1 3d 9c ed 19 3d 19 95 cb be 59 d7 d7 3e
       0.1098936 0.037580118 -0.3976219 0.42156485
0003b0 49 66 c3 be 79 97 ac bc e7 5e 71 be 28 c1 5e 3d
       -0.38163975 -0.021068322 -0.23571359 0.054383427
0003c0 22 73 68 bd 6e 00 5b be 70 2c 9e 3e 59 8f 9d be
       -0.056750424 -0.21386883 0.30893278 -0.30773428
0003d0 19 80 ce be 43 0d f1 3e 78 52 b2 bd aa 21 f8 3d
       -0.40332106 0.4708043 -0.08707136 0.12115796
0003e0 6c d3 20 3e fc 5a d9 3e ff c0 9c be 7e 02 15 be
       0.15705651 0.42452228 -0.30615994 -0.14551732
0003f0 8d f7 c0 3d 5b b8 c1 3e 52 96 95 3e 6d af 89 3d
       0.094222166 0.37835965 0.29216248 0.06722913

hidden1.bias f4 [64]
000000 72 3d 3c be 51 63 59 be a0 6e 1e be f6 1e ef 3d
       -0.18382815 -0.21229292 -0.15471888 0.11675827
000010 56 4e 42 be 01 36 a3 3e 22 df 3c be a4 b2 77 3e
       -0.18975195 0.3187714 -0.18444493 0.2418924
000020 0f aa c6 3e 81 41 89 3e 07 21 6f 3e ee e4 3f 3e
       0.3880162 0.26807788 0.23352443 0.18739673
000030 66 ef 8a be a5 18 a3 3e 66 bd 56 3e d9 2c a9 3e
       -0.27135772 0.3185474 0.20970687 0.3304203
000040 db 8c 46 3e e9 66 82 3e 31 13 00 3f 13 d2 eb bd
       0.1938967 0.2546914 0.50029284 -0.11514678
000050 8d 87 99 be 60 3e 6d 3e 33 66 18 3e 20 48 5d be
       -0.2998623 0.23168325 0.14882736 -0.21609545
000060 88 79 48 3e b0 40 78 be 0e 27 52 bd c9 b0 20 3e
       0.1957761 -0.24243426 -0.051306777 0.15692438
000070 1c 23 c8 3d 24 d7 9b 3d 77 1c 0b 3f cc 9a d7 3e
       0.097723216 0.07609394 0.5434031 0.42110288
000080 67 83 c5 3e eb 66 0e 3f 8f aa 99 be 8a 24 ac 3d
       0.38576815 0.5562579 -0.30012938 0.08405407
000090 7f ee 86 be 75 b5 98 be 8d 09 94 3d 8c 98 ba 3e
       -0.26353833 -0.2982594 0.07228384 0.3644451
0000a0 38 0e 71 be b0 d0 67 be 6b 68 b1 3e e0 f7 91 be
       -0.2354058 -0.22638202 0.34649977 -0.28509426
0000b0 bd e5 97 3e f5 43 8d 3e fa fd 8f be f7 be 9c 3e
       0.29667464 0.2759091 -0.28123456 0.30614445
0000c0 20 59 31 bd ce da ff bc 64 c4 01 bd 3c 2f 86 3e
       -0.043297887 -0.031232264 -0.031681433 0.26207912
0000d0 62 88 81 3d 63 1f 3f bd 81 a5 92 be 0b f3 00 be
       0.06324841 -0.046660792 -0.28641894 -0.12592714
0000e0 43 03 9e 3e 29 7b 9a 3e 32 07 cf ba 28 d2 df be
       0.30861863 0.3017209 -0.0015794991 -0.43715024
0000f0 23 88 a2 be f6 8a d7 3e 10 a9 e3 3d dc 02 cc 3e
       -0.3174449 0.42098206 0.111162305 0.39845932

hidden2.weight f4 [32, 64]
000000 c8 95 e0 bd e8 36 b8 3d ae 7b c0 bd 20 cd e3 3d
       -0.109660685 0.089948475 -0.0939859 0.11123109
000010 00 48 e1 39 20 71 4d 3d 68 88 24 bd 52 df d3 bd
       0.00042968988 0.050156713 -0.04016915 -0.10345329
000020 c4 de aa 3d 00 b0 c1 b9 98 5e e3 3c 7e e2 b9 bd
       0.083432704 -0.0003694296 0.027755067 -0.09076403
000030 b0 23 7d 3d 62 54 f8 bd 20 6b 0b bc 52 df 99 bd
       0.061801612 -0.1212547 -0.008509427 -0.07513298
000040 6a 27 a8 bd ca d5 fc 3d 72 ed be bd 1c 88 c9 bd
       -0.08210643 0.123454645 -0.09322633 -0.09840414
000050 7c 00 39 3d b0 ef 20 bd 3c 81 1b 3d f8 13 bc 3d
       0.045166478 -0.039291084 0.037965044 0.09183496
000060 50 e7 94 3c 20 7f 6b 3d 3a 84 8f bd 38 7a 02 3d
       0.018176705 0.057494283 -0.07007642 0.031854838
000070 a8 ba 26 3d f6 e5 df 3d 40 4f 81 bc b8 40 10 3d
       0.040705353 0.109325334 -0.01578486 0.03521797
000080 0a 69 b2 bd f0 6e d8 bc c0 2a 9e 3d 80 ed 31 bd
       -0.08711441 -0.026420087 0.07722998 -0.04343939
000090 48 a1 f7 bc 4a 28 8d 3d 16 23 e2 bd 80 26 b3 bd
       -0.030228272 0.0689245 -0.11041848 -0.08747578
0000a0 e0 7f 48 bc 90 a9 48 bd 8c 16 ff 3d 50 63 d3 3d
       -0.012237519 -0.048989832 0.12455472 0.10321677
0000b0 80 14 a7 3b 20 3b ba bc 6c dc db 3d d8 2d dd 3d
       0.0050988793 -0.022733271 0.107354015 0.107997596
0000c0 14 53 3f bd 10 26 eb bd f8 57 f2 3d 20 0a 30 3c
       -0.04671009 -0.11481869 0.11833185 0.0107446015
0000d0 80 43 65 3c 20 6f 7f 3c 1a e1 99 bd 30 63 26 3c
       0.013993144 0.015590459 -0.07513638 0.010155484
0000e0 5c 99 c7 3d b8 97 f2 bd b2 6a e6 3d c8 1a 26 bd
       0.09746048 -0.11845344 0.11250819 -0.040552884
0000f0 18 7b dd bc 74 21 fb bd e4 d0 9a 3d 04 0d 6a 3d
       -0.027036235 -0.1226224 0.07559374 0.05714132
000100 50 a5 71 bd b4 ea c5 bd e2 ee d3 3d 8c eb 6e bd
       -0.058995545 -0.09663907 0.10348298 -0.058330104
000110 80 2b 96 3b 02 c5 af bd b6 f4 cd bd 20 51 f1 3c
       0.0045828223 -0.08582498 -0.100564405 0.029457629
000120 84 e5 83 bd 2c e8 25 bd 30 4a 48 3d 7e 7d cf bd
       -0.06440261 -0.04050462 0.048898876 -0.101313576
000130 8a 35 f5 bd 00 2d 95 3d 5c bc 60 bd 7c 94 c8 3d
       -0.119731024 0.07283974 -0.054867133 0.09793946
000140 e8 a5 0a bd d2 67 9c 3d 36 d8 c3 bd 24 f9 37 bd
       -0.033849627 0.0763699 -0.09562723 -0.044915333
000150 7a b5 c6 bd 58 59 dc bd 00 4c 2f bc 48 2c e7 3d
       -0.09702583 -0.107592285 -0.010699272 0.11287743
000160 7a 30 99 3d 76 90 d9 bd 8c f9 2a 3d 06 8d d8 3d
       0.07479949 -0.10623257 0.041741893 0.10573773
000170 94 3d 2c 3d 80 86 c7 3a 18 4d 9e bd 80 ae 50 3d
       0.042050913 0.0015222579 -0.07729548 0.050947666
000180 1a 63 b0 bd 94 70 50 bd 34 0a 45 3d de bc ca bd
       -0.08612652 -0.050888613 0.048105434 -0.09899305
000190 2e f9 ba 3d a6 68 8e 3d 4c 1b 87 3d f2 c8 b6 3d
       0.091295585 0.06953554 0.06597003 0.08925046
0001a0 b8 40 79 3d 50 98 71 3d e8 49 df bd 80 5e f1 3b
       0.060852736 0.058983147 -0.109027684 0.0073660016
0001b0 c8 e7 9e 3c 20 6a 7c bd 0c 51 c8 3d c4 b5 5d bd
       0.019397631 -0.061624646 0.097810835 -0.054128423
0001c0 f8 15 e7 bc 30 15 b1 3c 40 c6 5d 3c 54 59 eb 3d
       -0.028208718 0.021616548 0.013536036 0.11491647
0001d0 00 78 54 ba a6 5a c8 bd f8 f0 54 3d 20 84 fe 3c
       -0.00081050396 -0.09782915 0.05198762 0.031068861
0001e0 86 76 ff bd 94 b7 0a bd 54 eb 78 bd c0 5e 4c bc
       -0.124737784 -0.03386648 -0.0607713 -0.012473762
0001f0 fc 06 b5 bd f0 bd ba 3d 40 fa 3b 3b 4a 9b 83 3d
       -0.08839223 0.09118259 0.0028683096 0.064261034
000200 64 db db 3d a0 18 ca 3b 5d d3 87 bd c4 6b 0b 3d
       0.10735205 0.0061674863 -0.06632111 0.03403832
000210 ed 83 26 3d fe fc 02 3e 67 f4 48 be 17 23 09 3e
       0.040653158 0.12791821 -0.19624482 0.13392292
000220 02 a8 d6 bd 36 47 3f 3e 9c e3 7a 3d 8a 0b 6e 3d
       -0.10481264 0.18679509 0.06125222 0.058116473
000230 84 a6 58 3e 7c 1b 7c 3e db a3 36 3d c8 7a 4c 3d
       0.2115727 0.2461986 0.04458986 0.04992178
000240 4a 63 c6 bd 46 e8 77 3e 71 aa 32 3e c4 68 2f 3e
       -0.09686907 0.24209699 0.1744783 0.17129809
000250 18 90 37 3e 1e cb 99 3d 4a f0 b1 3d 40 fa 89 bb
       0.17926061 0.07509445 0.086884096 -0.0042107403
000260 3e 57 fc 3d f3 4d 90 3d 44 8a 39 bd 39 91 b6 3d
       0.123213276 0.07046118 -0.045297876 0.08914418
000270 f8 80 79 3d fe 0c 8f 3d 6c 45 74 39 bf 85 16 3e
       0.06091401 0.069849 0.00023295515 0.14699458
000280 5c a1 28 3d 8d a6 a9 3d 74 7c 6a 3d e0 58 2c bc
       0.04116951 0.0828372 0.057247594 -0.010519236
000290 10 63 34 3c b4 69 d3 bd d7 0b 85 3d 84 07 e6 3d
       0.011009946 -0.10322896 0.06496399 0.11231902
0002a0 7c b3 56 3d b9 61 ba 3d ba 2c f5 bd 80 4a eb bc
       0.052417263 0.0910067 -0.119714215 -0.028722048
0002b0 1c ff a4 bd 93 e9 ed 3d 18 f0 a7 3d 88 e5 16 bd
       -0.08056471 0.11616816 0.08200091 -0.03683999
0002c0 82 52 8c bd d7 05 51 bc 70 d7 35 3e ac d6 f3 3b
       -0.068516746 -0.01275774 0.17757964 0.0074413624
0002d0 f8 67 6e 3d 4a dd 35 3e 50 71 d1 bc 08 6f 8a 3d
       0.05820462 0.17760196 -0.025566727 0.06759459
0002e0 f7 60 7c 3d 6e fe 9a bd 50 72 c4 3c 30 c4 d9 bd
       0.06161591 -0.0756806 0.02398029 -0.10633123
0002f0 c0 64 f5 3c 40 af fa 3b 5f d9 05 3e 11 b8 25 3c
       0.029955268 0.007650286 0.13071202 0.010114686
000300 f2 34 c4 bd 5a 0c a6 bd 72 26 e1 3d 5c be 68 3d
       -0.09580411 -0.081078246 0.10993661 0.056822166
000310 72 a2 fa 3d d8 58 2a bd 88 1c f0 bd 8c 20 66 bd
       0.12238015 -0.041588634 -0.11724192 -0.056183383
000320 c0 0f f6 3d e8 55 19 bd 70 89 03 bc a0 62 bc 3b
       0.12014723 -0.037435442 -0.008028373 0.0057490617
000330 46 1f e9 bd b4 ac a6 bd 60 09 27 3d 66 47 dd 3d
       -0.11382918 -0.08138409 0.040780425 0.10804634
000340 20 7a 12 bd 7e 2b 91 bd 60 69 33 bd 12 9a 89 bd
       -0.035761 -0.070883736 -0.043801665 -0.0671884
000350 60 27 fc bd 78 04 10 3d a2 d3 ab bd f8 da 94 3d
       -0.12312198 0.03516051 -0.08389975 0.072683275
000360 a6 59 ff bd 7e c7 96 bd 42 bf c7 3d 64 9f 37 bd
       -0.12468271 -0.07362269 0.097532764 -0.04482974
000370 d8 cc ca bc 70 4a e1 bc 40 a0 a2 3d 58 da 64 3d
       -0.02475588 -0.027501315 0.079407215 0.05587229
000380 50 70 4f bc ec a7 25 3d b8 33 0f bd ac 0f 45 bd
       -0.012661055 0.040443346 -0.034961432 -0.04811065
000390 6c f4 62 bd 8e 39 b5 3d e2 5c 83 bd 14 a4 4c bd
       -0.05540888 0.08848868 -0.064142 -0.049961165
0003a0 4e 45 fb 3d 4e 8e af bd ba b3 89 bd a0 1d c0 3d
       0.12269078 -0.08572064 -0.06723733 0.093806505
0003b0 24 3f 88 bd 90 cb 72 bd 90 09 17 bd d0 11 dd 3d
       -0.06652668 -0.059276164 -0.036874354 0.10794413
0003c0 06 7c ae bd 86 44 cc bd 0a 53 c1 3d 5c de 1e bd
       -0.08519749 -0.09974007 0.094396666 -0.038786277
0003d0 fc 39 a8 bd 18 64 8d bc 1c 94 3b bd 00 ae 7b bc
       -0.08214185 -0.017259642 -0.045795545 -0.015361309
0003e0 48 2b cb 3c 62 d5 94 3d d0 ce 2a bc e0 cd 07 3c
       0.024800912 0.07267262 -0.0104252845 0.0082888305
0003f0 fc 24 d8 3d 7e 5d f0 bd 8c 75 18 3d 64 f0 34 3d
       0.10553929 -0.11736582 0.037221476 0.044174567

hidden2.bias f4 [32]
000000 00 91 32 ba 10 53 34 3c da c1 2d 3d 2a 1b b6 3d
       -0.0006811768 0.011006132 0.0424212 0.088919
000010 d3 7e 64 3c 7a fb bf 3d ac 1a 42 3e 5f 88 48 3d
       0.013946253 0.09374137 0.18955487 0.04895818
000020 0e ee e3 3d 1e fe e6 bd be 28 12 3e d2 5d f1 3d
       0.1112939 -0.11278938 0.14273354 0.11785473
000030 2e 2f c6 bd ca 7a da 3d db c2 32 3d bb cb 3b 3e
       -0.096769676 0.106679514 0.04364286 0.18339436
000040 7e 0b e6 3c 63 2a d6 bb 64 54 27 bd b0 25 52 3d
       0.028081652 -0.0065358146 -0.040851966 0.051305473
000050 be fe 85 bd c2 88 33 3e a4 70 d1 bd 00 69 e5 3d
       -0.06542729 0.17532638 -0.102265626 0.11201668
000060 5c 1b 23 bd fe b4 98 bd da 98 ba 3c 58 22 22 3d
       -0.039821014 -0.074563965 0.022777963 0.039583534
000070 32 fb 8f bd 45 f7 9d bd 84 94 72 3d c2 2f b9 3d
       -0.070303336 -0.077131785 0.059223667 0.09042312

hidden3.weight f4 [16, 32]
000000 0d 03 28 3e c6 04 3d bd 59 ab f4 bc 5e f2 83 3d
       0.16407414 -0.04614713 -0.029866861 0.06442712
000010 e0 db ca bb 61 99 23 3e 09 00 a4 3d 16 7c 30 3d
       -0.006190762 0.15976478 0.08007819 0.043087088
000020 21 59 1e 3d e3 15 89 3d 47 95 c0 3d ba 2e 55 3e
       0.03865922 0.06693628 0.094034724 0.20818606
000030 77 27 07 be 4d a7 c4 3d 2c 3a dc bc c6 7f 14 3e
       -0.13198648 0.096022226 -0.026883207 0.14501867
000040 5f 80 85 3e 00 b6 7a 3e 10 65 a2 bd 3a f4 1e bd
       0.26074502 0.2448349 -0.079294324 -0.03880713
000050 34 e9 a6 bd ea 20 68 bc 33 98 31 3e 17 48 c2 bd
       -0.08149949 -0.014168004 0.17343216 -0.09486406
000060 96 ad f8 3d 8b f9 82 bd fc 2d b1 3d c4 c0 cc bd
       0.12142484 -0.06395253 0.08651349 -0.099977046
000070 14 d3 38 bc a3 f2 6c bd 14 62 08 be 2a 0c f4 bd
       -0.011280794 -0.057848584 -0.13318664 -0.119163826
000080 4e 06 16 3d 3e 01 e2 3b d1 89 cd bd 2c 16 66 bd
       0.036627106 0.0068971207 -0.10036052 -0.05617349
000090 78 a6 db 3d c8 f5 26 be dc 94 fa 3c 45 a1 0a bd
       0.10725111 -0.16304696 0.03058856 -0.033845205
0000a0 ce 35 db bc 53 cb ee 3c 17 57 d1 3b e4 fd 68 bd
       -0.026759055 0.029149687 0.0063885557 -0.056882754
0000b0 7d 40 09 be 72 b9 55 bd 84 a1 25 be 6e ee 95 bd
       -0.13403507 -0.052178808 -0.16174895 -0.073208675
0000c0 12 e6 03 3d 0d 2a 4e bd da 4b d2 bd c7 42 b9 bd
       0.032201834 -0.05033307 -0.10268374 -0.0904594
0000d0 7d cd cd 3d 40 54 99 3c b0 85 33 be 15 d0 c7 3d
       0.100489594 0.018716931 -0.17531466 0.097564854
0000e0 84 14 b5 bd 0c 28 25 be 6f 39 d4 bd a4 29 33 3e
       -0.08841804 -0.16128558 -0.10362517 0.17496353
0000f0 96 26 1d 3e 35 8b 2d 3e b7 f3 f3 3d 52 dd cf 3b
       0.1534675 0.16947635 0.11911719 0.006343522
000100 81 27 cd 3d 5b 11 81 bd 0d 48 dc bd 1d b4 b9 3c
       0.100173004 -0.063021384 -0.1075593 0.022668893
000110 44 13 1d be 59 17 64 3a 4f 4f 17 3b a3 a8 22 be
       -0.1533938 0.0008700989 0.0023088043 -0.15884642
000120 5d b4 e2 bd fa 13 bd bc 9c 83 16 3e 0f da 5b bd
       -0.11069558 -0.023080815 0.14698642 -0.053674754
000130 c3 e0 ce 3d 26 27 81 3d e9 f1 d1 bd 2f 3f f4 bd
       0.10101464 0.06306295 -0.10251219 -0.11926114
000140 8c d6 e1 bc 60 3f 82 3c 9f a0 c8 bd d8 09 a2 bc
       -0.027568124 0.01589936 -0.09796261 -0.019780084
000150 b0 73 22 3d ce 89 e7 3b 55 75 18 bd 49 6b 82 bc
       0.03966111 0.007065988 -0.03722127 -0.015920298
000160 e9 06 26 be b4 a0 58 bd f2 74 b0 3d b3 3c 09 3e
       -0.16213574 -0.052887633 0.086160555 0.13402061
000170 80 c3 3c 3d 0b b7 a7 bd 5d c0 17 3e ad 76 b6 bc
       0.04608488 -0.081892096 0.14819475 -0.022273386
000180 2d 8d 31 bd 5f 89 19 bd aa 6c b3 3c 89 af ea 3d
       -0.043347526 -0.037484523 0.021902401 0.11459262
000190 9f ec 43 bd 24 fb 47 bd 1d dc ec bd c8 e9 a3 ba
       -0.04783308 -0.04882349 -0.11565421 -0.0012505585
0001a0 6b da 23 3e 6a e6 06 be 9f 30 7d 3d ed 81 c9 3d
       0.16001289 -0.13173833 0.061813947 0.098392345
0001b0 62 ee 1d be a4 b4 06 bd f0 fb 1e 3d 3e 26 a5 bc
       -0.15422967 -0.032887116 0.038814485 -0.020159837
0001c0 19 8f 46 be 16 b3 44 bd cf e4 25 3e 05 38 82 3d
       -0.19390525 -0.048022352 0.16200565 0.06358341
0001d0 b5 c1 bc 3c 74 9a e4 3d 22 55 2e bd a2 5e bf 3d
       0.023041585 0.11162272 -0.042561658 0.09344222
0001e0 83 7d 7c bc 61 fd 6d bb e1 88 62 3d c5 01 31 be
       -0.015410784 -0.0036314356 0.05530632 -0.17285831
0001f0 78 c5 dd 3d a6 aa b7 3d 82 6a f0 3d 86 c0 84 bc
       0.1082868 0.089680955 0.11739065 -0.016205084
000200 13 7c d9 3d cc 2a 32 be 20 cf 2c be 78 58 15 bc
       0.106193684 -0.17399138 -0.16875887 -0.009115331
000210 96 e4 84 bc 8c dc 06 be 2f de 32 be f0 ee f8 3c
       -0.01622228 -0.1317007 -0.17467569 0.030387372
000220 f0 8f 9c 3d 31 73 b5 bd cd 25 ae bc 9e d7 09 be
       0.076446414 -0.08859862 -0.02125826 -0.13461158
000230 ec 3b f3 3d 01 29 95 3d ac 1b dc 3d 81 54 9b 3c
       0.118766636 0.072832115 0.107474655 0.018961193
000240 8d f7 d5 3d 2a c9 f1 3c 96 21 04 3e 3e ee 99 bd
       0.10447607 0.029514868 0.12903437 -0.07516144
000250 63 39 db bd 78 08 8e 3d 7d 5d f3 bd f2 60 27 3e
       -0.10704305 0.06935209 -0.11883066 0.16345575
000260 3e f1 ee 3c 61 19 33 3e 68 d8 fd bd 56 7c 19 3e
       0.029167768 0.1749015 -0.12394792 0.14988837
000270 ff 4f 2f 3e d5 ce ed bd 87 e3 21 3a e9 74 14 3e
       0.1712036 -0.11611716 0.0006175567 0.14497723
000280 4f 8c d4 bc 04 bb 32 3e be 3f 37 3e 15 d0 1a 3e
       -0.02594581 0.17454153 0.1789541 0.1511844
000290 eb 10 65 3e d8 aa 7c bc 03 c3 c8 3d e8 a4 90 3d
       0.22369735 -0.015421592 0.098028205 0.07062703
0002a0 ac 98 34 be 58 c6 8d 3d 70 1c f6 3d 7e 43 75 3d
       -0.17636365 0.06922597 0.12017143 0.05987882
0002b0 c3 d3 ba bd 3e e4 6c 3e 7c 5d 10 3d ca 75 7b 3e
       -0.091224216 0.23133942 0.035245404 0.24556652
0002c0 89 41 bf 3c 69 82 a3 bd 15 c1 ad 3d 81 c3 07 be
       0.02334668 -0.07983858 0.08484093 -0.13258173
0002d0 00 25 84 3d f7 8a 51 3e cc c1 33 be 5c 45 17 be
       0.0645237 0.20463167 -0.17554396 -0.14772552
0002e0 e3 eb 13 3d 0f 0f d9 3d d8 85 4c bd 41 ad 6e 3d
       0.03611363 0.10598575 -0.04993233 0.058270697
0002f0 86 12 b8 3d 4b 33 75 3d a8 b2 2e 3e ef 25 0e be
       0.08987908 0.05986337 0.1706034 -0.13881658
000300 e9 e0 0a be 29 c1 30 3e cb f0 48 3e 1d 0d 1b be
       -0.13562359 0.17261185 0.19623105 -0.15141721
000310 e8 46 a2 3d 38 eb 1b 3e a3 19 54 bd 92 da d6 3d
       0.079236805 0.15226448 -0.05178226 0.10490908
000320 79 47 f2 3d c6 bc 31 be 34 bb 48 3a ab 79 80 3e
       0.118300386 -0.17357168 0.000765729 0.25092825
000330 56 a1 90 3d 5a 8e 0d 3d e6 27 9d 3d 69 a9 8e 3e
       0.070620224 0.034559585 0.07673626 0.27863625
000340 1f 51 4f 3e 03 fa e5 3d 7c 10 d9 3d 0b e2 33 bd
       0.20245789 0.112293266 0.10598847 -0.043916743
000350 d2 a5 69 bc 95 27 42 3e 66 e9 0d 3d 80 fe 29 3e
       -0.014260726 0.18960412 0.034646414 0.1660099
000360 f8 eb 1d 3d c3 1f cf 3d 9e 45 0a be f7 18 49 bd
       0.038555115 0.1011348 -0.1350312 -0.049096074
000370 85 f7 b9 3d 06 2a 7d bd aa 8a f5 3d 3d 3a 69 3c
       0.09080414 -0.061807655 0.11989339 0.0142350765
000380 f7 15 35 bd 8e a2 05 bd c5 e3 13 3e 51 ef 2e be
       -0.0442104 -0.032625727 0.14442356 -0.1708348
000390 00 d3 66 3d 9e c1 d2 bd 46 16 1e 3d 2f 0f c5 3d
       0.05635357 -0.10290836 0.03859546 0.09622037
0003a0 c4 34 01 3e f3 34 6b 3d 83 ce fe 3d b8 0a 7e bd
       0.12617785 0.057423543 0.12441733 -0.06202194
0003b0 22 79 f7 bd 1e a4 de bd 8d 58 c2 bd 82 37 46 be
       -0.12083651 -0.108711466 -0.09489546 -0.19357112
0003c0 a6 95 44 3d 07 47 19 be db 2e c0 bd d3 17 8a 3d
       0.04799428 -0.14968501 -0.09383937 0.06742825
0003d0 18 17 09 bd 3c 74 4b 3d 74 c7 e0 bd 89 a7 01 be
       -0.03346929 0.049671397 -0.10975543 -0.12661566
0003e0 de 66 77 3d 2e a3 fe 3d f0 3d f0 bc d1 05 6f 3d
       0.060400836 0.12433468 -0.02932641 0.058355156
0003f0 ab 6f 15 3d 4d 8e f1 bc 5e fd 91 3d 47 51 dc 3d
       0.036483448 -0.0294868 0.07128404 0.1075769

hidden3.bias f4 [16]
000000 9c 58 ed bb d4 61 1f be db fd 55 bd e4 b6 00 be
       -0.007243229 -0.15564662 -0.05224405 -0.12569767
000010 18 01 4c bd 4a a8 2f 3e 8c f4 a4 3c 58 03 07 3d
       -0.04980573 0.17154041 0.02013614 0.032962173
000020 d8 d5 93 bd e8 59 92 bd 7f ed b8 bd c0 3a a7 39
       -0.07218522 -0.071460545 -0.09029674 0.00031896494
000030 02 b9 cc bd 23 e7 06 3e ec c1 8f 3c d0 ee a2 39
       -0.09996225 0.13174109 0.017548524 0.00031076977

output.weight f4 [2, 16]
000000 c7 c9 4a be 64 04 ad bd 53 a2 5c be 26 ce 00 be
       -0.19803534 -0.08448103 -0.21546297 -0.1257864
000010 32 ef 78 be 8d 06 93 3e 29 71 0a bd 10 7a 98 bd
       -0.24309996 0.28715935 -0.033799324 -0.074451566
000020 ac 2b 91 3e f3 29 05 be a8 4a 4b 3e d7 bb 9d bc
       0.28353631 -0.13004284 0.19852698 -0.019254608
000030 60 fc 08 bc 0c c7 a3 3d 23 6a df ba 98 8a 4a 3e
       -0.008360952 0.079969496 -0.0017045181 0.19779432
000040 e7 ee 36 3e 5e cf 42 3e 8d 95 eb bc 55 48 14 3d
       0.17864572 0.19024417 -0.028757835 0.036201794
000050 12 2a 10 3e aa 43 2a 3e 13 24 0f 3e c4 4e 18 be
       0.14078549 0.16627374 0.13978605 -0.14873797
000060 b3 a6 2c 3e 6f 58 6d be 00 26 01 bd 6c 82 80 3e
       0.16860466 -0.23178266 -0.03153038 0.25099504
000070 7c 5f 8d bd 0a 82 2c 3e 4a 49 d7 3d 70 ca 04 3d
       -0.06902978 0.16846481 0.10512026 0.032419622

output.bias f4 [2]
000000 37 70 9b 3e 05 14 6c 3e
       0.3035905 0.23054512
